Modeling/first_attempt_pytorch.pt (torch, 62100 bytes, 6 tensors)

fc1.weight f4 [64, 197]
00000000: 1601 50bd b4ca 41bc 926f a6bc 92f1 223d
00000010: 3f43 debc dedc b2bd 82a2 133d 82d6 1ebd
00000020: 8089 283c 0c43 cdbc 5298 35bc 83d7 66bd
00000030: 4e02 743c 0850 553c 420c 96bb 33ba 62bd
00000040: c9c5 ca3c 005a 35bd bb88 983e 5b28 c8be
00000050: d4ee 98be 5ac4 46bc 5079 d5be 4409 a3be
00000060: 5729 93bd 4182 88be f997 95be 9abd c13e
00000070: d42b 78be 8ac0 663e 1b81 0ebe be1d a9be
00000080: 77c0 9c3e 8cc1 a7be 238c 463e 6036 63be
00000090: b7cd 98be c893 cd3e 55a4 00bf 0e35 a1be
000000a0: 0a61 b1be 49fa b43d d794 ac3e 64d1 53be
000000b0: 9545 c3bd f4bf 4ebe 09e7 05be 5e64 263c
000000c0: bfaa d8bd a702 a4be bfd6 563e 3b3c a0bd
000000d0: 1253 95be 49b4 c3bd 098d 23bf 8a7d 9dbe
000000e0: 5035 a9be 6942 a63e 89b6 993e 5f50 7f3e
000000f0: e1bd d7be 3626 58be 67c7 f6bd 8d1e e03e
00000100: aaaf c6be c660 07bf 3fe0 d43c 7dd4 d13d
00000110: 0c21 93be 03de 21bf 898a a83e 5922 383e
00000120: 7c30 803e 4a4a a5be 8081 efbc 3fa3 73be
00000130: d04b 123f c60a 5d3d 11f3 61be 9410 92be
00000140: 8153 a4be c47d 64be 04d8 b3be a75a 7f3e
00000150: cbb6 d03c 0fef 9abe 2e76 aa3e 9256 483e
00000160: 874d 60be 3d59 8f3e 4283 91be 9ae8 d13d
00000170: 0ff4 9fbe 0f82 793e a1bb 86be 645f ccbe
00000180: abc2 58be 5673 123f a1a2 f13e b296 bb3e
00000190: 6ffe 77be fcff 073e a50c cc3e 7339 383e
000001a0: 81bf 1cbe cb51 7fbd df15 82be 1f33 d0bd
000001b0: ae5e 94be 7177 b63e 2b3d e7be 04e4 dcbd
000001c0: 4db0 f13d fdcc 013e 3974 8cbe a8a9 083e
000001d0: 0f10 9fbe cb16 66be b516 1d3e c03e dc3e
000001e0: 2c48 3dbe 1149 e8be 64c1 503d a95c 1f3d
000001f0: fb96 c13c 78d2 233d 8d82 f93d a63b 913e
00000200: d2e6 3e3e 7229 d5bc db66 0b3e ede3 ecbd
00000210: 4e33 bb3e 9197 a9be 9da1 1d3e d277 f03e
00000220: eff2 5ebe 9891 db3e 298e af3d 80ed d4be
00000230: a231 9c3b f206 bcbe 20a3 1cbd f1c8 b6be
00000240: 38c0 5cbe 5701 d93e 7b3d dabc a91e 96be
00000250: 6bd0 9abe c2a8 1f3c 1ac0 28be c41a bfbe
00000260: e726 e53e 54e3 773d 7fc0 8c3e c8cf b0bd
00000270: fded a2be b643 debe f3b5 86be 1a19 2abe
00000280: f2f3 66be 4cbb 62be 98f8 82be 568c a8be
00000290: 94d5 dc3e 2eeb 7ebd dbaf e8be 50fd 473e
000002a0: 006d abbd e29d 16be 40ec 9d3d 7853 9bbe
000002b0: 64b0 30be 8c5a 503e 6823 693e efaf 90be
000002c0: 63af 45be 0a5a 473d d9d8 01bf e4c3 a4be
000002d0: 042a ca3e 425a b7be 22f0 bfbd a516 9ebe
000002e0: ae1e 633e d24c 8d3e 21be 29bc 6636 053d
000002f0: f2a4 2bbd 147f c5bc 2946 a13c 1601 3cbc
00000300: 5fe9 1dbc cedc ed3d 7334 25be 444f 8b3e
00000310: 2359 353d 9dd5 9ebd 9a01 cc3c ad30 8fbd
00000320: 30bb f23b 40cb abbd 5094 a2bc ecef b0bd
00000330: 4079 06bd ddef a3bd 5427 89bd e898 813b
00000340: 3d5c b1bd 79a9 4ebd cef0 903b f162 9c3c
00000350: 6273 c7bc 8546 28bc b090 bebd 9967 cb3c
00000360: c270 3b3c c455 34bd 5f55 883d fecd 87bd
00000370: 0dd7 d23d 98b1 df3c c7f7 443d d635 8c3d
00000380: 90aa 2bbe 3b8d 8abd 9100 3f3b f4ca e7bc
00000390: 4dba a3bd e176 463d 0f56 80bc f208 013c
000003a0: 125c a2bd 7ead 39bc 5c8b f23b e1f7 60bd
000003b0: 4965 113c 5d9c 6ebc 5b18 97bd 31cd 2abd
000003c0: 652e 74bd 35be 3c3b 09b8 e6bc 7aea 31be
000003d0: 44fd b2bc de2d fabb c05d bbbd 1750 e0bd
000003e0: d632 803c 3977 23be 3c9b 3dbd ac2b 373d
000003f0: 27da 1bbd 1838 953d 6db6 3abe 0ff6 b4bb
-0.050782286 -0.011828113 -0.020316873 0.03978116 -0.027131675 -0.08733533 0.03604365 -0.03877879
0.010286689 -0.025056385 -0.011083679 -0.05635787 0.014893128 0.013019569 -0.004579098 -0.055353355
0.024752514 -0.044275284 0.29791817 -0.3909329 -0.2986971 -0.012131775 -0.41694117 -0.31843007
-0.07185619 -0.26661876 -0.29217508 0.37839967 -0.24235469 0.22534385 -0.13916437 -0.33030504
0.3061559 -0.32764852 0.19389395 -0.22188711 -0.29844448 0.4015181 -0.5025075 -0.3148579
-0.34644347 0.088368006 0.33707306 -0.20685345 -0.09534756 -0.20190412 -0.13076414 0.010155765
-0.10579442 -0.32033274 0.20980357 -0.07823988 -0.2916494 -0.09555871 -0.6388708 -0.3075984
-0.33048487 0.32472542 0.30022076 0.24933003 -0.42137054 -0.21108326 -0.12049752 0.43773308
-0.38805896 -0.5288204 0.025985835 0.10245607 -0.2873615 -0.6322939 0.32918194 0.17981853
0.2503699 -0.3228324 -0.029236555 -0.23792742 0.5714693 0.053965352 -0.22065379 -0.28528273
-0.32094958 -0.22313601 -0.35125744 0.24936925 0.025477787 -0.30260512 0.3329329 0.19564274
-0.21904574 0.2799777 -0.28420454 0.10249443 -0.3124089 0.2436602 -0.26315024 -0.39916527
-0.2116801 0.5720724 0.47194389 0.3663841 -0.24218152 0.13281244 0.39853397 0.17990665
-0.15307428 -0.062333863 -0.2540731 -0.101660006 -0.28978485 0.35638002 -0.45163855 -0.10785678
0.11801205 0.12675853 -0.2743242 0.13345969 -0.3106694 -0.22469632 0.15340693 0.43016624
-0.18484563 -0.45368245 0.05096568 0.038906727 0.023631563 0.03999564 0.12183104 0.2836582
0.18642738 -0.02602074 0.13613455 -0.11566911 0.3656258 -0.33123448 0.15393682 0.46966416
-0.2177236 0.42884517 0.08572037 -0.41587448 0.004766659 -0.3672405 -0.038241506 -0.3570018
-0.215577 0.42383835 -0.026640644 -0.29320267 -0.30237135 0.009744825 -0.16479531 -0.37325108
0.44756243 0.06051953 0.27490613 -0.08633381 -0.31822196 -0.43411034 -0.2631069 -0.16611138
-0.22553995 -0.2214176 -0.25580287 -0.32919568 0.43131697 -0.062236004 -0.45446667 0.19530225
-0.083703995 -0.14708665 0.07711077 -0.3033712 -0.17254788 0.20347041 0.22767413 -0.28259227
-0.19305186 0.048669852 -0.5072151 -0.32180703 0.3948518 -0.3581105 -0.093719736 -0.3087665
0.22179672 0.27597672 -0.010360272 0.03252258 -0.04190535 -0.024108447 0.019686775 -0.011474868
-0.00963816 0.11614381 -0.16133289 0.27208912 0.04427446 -0.07755587 0.024903107 -0.06991706
0.0074075684 -0.08388376 -0.019846112 -0.086395115 -0.032830477 -0.08004735 -0.06696954 0.0039549954
-0.08660171 -0.05045459 0.0044232374 0.019090148 -0.024347011 -0.010270719 -0.09304941 0.024829673
0.011440458 -0.044027105 0.06656908 -0.06631087 0.10294924 0.027306363 0.04808786 0.06846206
-0.16764283 -0.06765219 0.0029144625 -0.028295018 -0.079945184 0.048453216 -0.015666036 0.007875668
-0.07927717 -0.011332868 0.007401867 -0.054923896 0.008874246 -0.014563647 -0.07377692 -0.041699592
-0.059614558 0.0028799896 -0.028163927 -0.17374602 -0.021849282 -0.0076348623 -0.09148741 -0.10952776
0.01564924 -0.15963449 -0.04629062 0.044719383 -0.038049843 0.0728609 -0.18233652 -0.0055224965

fc1.bias f4 [64]
00000000: a81e 363d 8587 89bd 3cbe 963a 2021 6b3c
00000010: 53e1 523c 0392 a6bc 8bec 3b3d 593a 48bd
00000020: 3e7f 76bd ef54 673d 61b7 543c d3ba 603d
00000030: 3a2a e73c fab5 213d c25b 8a3d c366 573d
00000040: e3a4 493c 1159 45bd 2ecd 9fbd 5617 a0bc
00000050: 333d 173d 7ac9 023d cd94 2f3d 7c79 95bb
00000060: 2b8c 39bc 8ec5 1b3e 5b07 83bc 97d8 7f3d
00000070: 5268 e1bb 6f03 fd3c 1b79 a13c 3976 11bd
00000080: 1a70 4c3c 63da 283d 6c7c 97bd 95f9 c33c
00000090: 949a 363c 117c 0cbc eaa5 6d3b a3b0 293d
000000a0: 34a8 4e3d aefd 3e3d 2e22 07bd ebab 8cbd
000000b0: da47 d43c 2c70 d23c 4713 a9bd 2733 5dbd
000000c0: 83ef 69bd d46b 5cbd 0ffe 35bd e02b cabb
000000d0: 8f01 2f3c 3377 b0bd d9d0 ce3b d2ca 083c
000000e0: c5d1 333d 067c f1bc c5d8 8bbc c424 0bbd
000000f0: b540 953d 0cd6 3cbd 9705 77ba 03ed db3c
0.04446283 -0.067153014 0.0011500786 0.014351159 0.012871104 -0.020333296 0.04587988 -0.04888377
-0.06017994 0.056477483 0.012983174 0.05486567 0.028218377 0.039480187 0.06755783 0.052588236
0.012307378 -0.048180643 -0.07802807 -0.019542377 0.0369236 0.031930424 0.042866517 -0.004561601
-0.011324923 0.1521208 -0.015994718 0.062462416 -0.006878891 0.030885426 0.019711068 -0.035513137
0.012477899 0.041223895 -0.073967785 0.02392272 0.011145253 -0.008574502 0.0036262223 0.04142822
0.05045338 0.046628647 -0.03299158 -0.06868728 0.025913168 0.025688253 -0.0825563 -0.05400386
-0.05711318 -0.05381377 -0.044431742 -0.006169781 0.010681524 -0.086164854 0.0063115177 0.008349137
0.043901224 -0.029478084 -0.017071137 -0.03397061 0.072877325 -0.04610257 -0.0009423135 0.026846414

fc2.weight f4 [32, 64]
00000000: 30e8 e7bd 50a5 bc3d 7c58 d43c 2c44 a13c
00000010: 2c92 28bd 7ccc fdbd acd9 2abd b282 a93d
00000020: 6034 063c 073e b1bd 8033 c2ba 317f bcbd
00000030: 1892 5fbd b4ef 7abd 20c6 fe3b fdb1 c8bd
00000040: 00cc 0a3a e0da b3bd 54fa edbd ae33 ccbd
00000050: 8e35 f7bd 10cc f03c 98f5 803d 4e67 6e3d
00000060: c0f5 c5bc 93d7 df3c dfd0 9a3d 5281 ea3d
00000070: c015 ae3c 12d6 b9bd fa43 e43d 80a2 a83a
00000080: fc0e 07bd 9922 473d 2667 8cbd 1e10 81bd
00000090: 625b d4bd f735 cb3d 90e9 cebd bc8e c93d
000000a0: ef63 c3bd 2df1 0cbd bcfb 51bd cc24 ef3d
000000b0: 204c 30bd ce13 883d bc98 673d 3c09 1fbd
000000c0: fa86 c53d 1eef c33d 725e 5d3d 2fa5 5a3d
000000d0: 8b02 083d 1508 2c3a fb03 04be e189 06bd
000000e0: 5878 4bbd 929a bb3d 94a5 40bd 4c6c c8bd
000000f0: 3a76 06be 4ff6 e1bd 1419 03bc 9057 30bc
00000100: f41b b63d 5f3c e23c 95f5 423d ea60 acbd
00000110: 78a5 b73c 7208 b6bd eb5c fdbc 58f8 77bd
00000120: 2961 be3d 1016 82bd ca3e fdbd 991e ba3a
00000130: ed1c bdbc 77c0 c8bd 94eb 7f3d 25cf ef3d
00000140: 2be5 293d 23f5 023d 5652 073e 3c22 253d
00000150: 8f5a 8a3d 52f5 e0bc e950 c5bd 0b27 9bbd
00000160: 5c74 b4bd f45d 353d 0aa4 ec3d 2569 453c
00000170: b70f 093d 255c 573d ed6f 113c df57 003e
00000180: f7ae 9a3d da45 a03d d414 e33b b114 ff3d
00000190: 072c 86bd a36c 8cbd 4cb6 58bd 702f d5bd
000001a0: 4ee2 9fbd 731d 3e3c f523 55bb f1bb 023b
000001b0: 99e8 6dbc 4cfe b23d 4576 d2bd 9137 6a3d
000001c0: e74a e4bd 5577 063e df25 74bc 0c5e f13d
000001d0: 3a12 1d3d 2f65 4f3d c528 c23d 3fa0 90bd
000001e0: 54cb c23d ddeb 693d 8761 3bbd a8fd 5c3d
000001f0: 150d e7bd 890f 8f3d fdcf cb3d d2d4 d3bc
00000200: ae63 2e3c 43c0 93bd b714 dd3d 7cfb 8b3d
00000210: 4648 813d 6b64 e13c 9d56 d9bd 62fc 6f3d
00000220: 1dcc 403d 24ae b43d 9fed dfbd ce75 ea3b
00000230: 0f48 dbbd 3b68 cfbd 7129 ebbb 94dd 06be
00000240: 9250 813d 21f4 9cbd 4f8c aa3c 533e c83d
00000250: 9187 a03d 33f4 d1bc 38cb 7cbd 9929 113c
00000260: 8a43 0a3d 4e6e e73d e4a1 bbbd 0045 15be
00000270: 6903 d93d cb36 853d 6513 6b3c a642 7abc
00000280: 2c6b 77bb 76e8 9c3d 44d6 fabc ebfd 7e3d
00000290: 3a54 f8bd 30b8 2c3b dc66 49bd 5d3b c03d
000002a0: 6115 fdbd 7dc2 05be f4bf cb3c a29a 273d
000002b0: 2881 e23d f8be 823d 54d9 e83d 1e9c b1bd
000002c0: 4115 b23d fafb 94bc 601f 9e3d a7ee 08be
000002d0: 8d95 f8bd f92a e23d 7d8e 53bd a821 8f3d
000002e0: adbf 903d 8bdc d0bd 09b0 a6bd d7a9 3fbd
000002f0: 35e1 51bc 691e 8fbc 2ed6 adbd fd2b 6fbc
00000300: 1b10 0bbe ebf3 cabc e7a5 a3bd 0298 59bd
00000310: 47e9 9e3d 0248 c93d 65b7 c23c ef06 763c
00000320: 427d d6bd a417 a73d 8f90 edbd 64ec 46bc
00000330: 846c f73d 6e68 ebbd 06d0 0dbd 77ee b5bd
00000340: 0010 fdbd fdb5 7f3d 0613 073d b9fd c93d
00000350: cd09 08bc ffcb 01be be51 dabb 659c 32bd
00000360: 1806 01bc 167a 19bd be45 803c 2a5f 23be
00000370: 0a70 e4bd a4f9 e53d 99af 9ebd e2c7 b9bb
00000380: a3bb b53d 5fd5 843d c5ff afbd a73e d5bd
00000390: 8f7d 36bd 388e a3bd e2e2 f3bc 74b7 62be
000003a0: c3f8 963c ad1e 7a3d 4b7b dbbc e55c 693e
000003b0: cf1a c8bd f708 b03b 7738 863d 4ff3 003c
000003c0: a7b5 a03c 6415 343d e791 c53d c2a8 b53d
000003d0: 1bd3 b13d 8564 edba 594e a63d 2185 46bd
000003e0: e6e4 33bc 718e bb3d 19cb ea3d 92e3 183d
000003f0: 7371 8fbd cb83 00bd dd46 9cbd ebc6 09bb
-0.11323583 0.09211218 0.025921099 0.019685827 -0.041155025 -0.12392518 -0.041711494 0.08276881
0.008191198 -0.08654409 -0.0014816374 -0.09203947 -0.054582685 -0.061263755 0.007775083 -0.097995736
0.00052946806 -0.087819815 -0.11620012 -0.099707946 -0.120707616 0.02939418 0.06296843 0.058203988
-0.024165034 0.027324473 0.0755937 0.11450447 0.021250606 -0.09074034 0.11145778 0.0012865812
-0.032973275 0.04861698 -0.068556115 -0.06301902 -0.103689924 0.09922402 -0.10103142 0.098416775
-0.09540545 -0.03440969 -0.051265463 0.1167694 -0.04304135 0.066444024 0.056542143 -0.038827166
0.09644885 0.09567092 0.05404515 0.053380188 0.03320555 0.00065624836 -0.12892143 -0.032846335
-0.049675316 0.09160341 -0.047032908 -0.09786281 -0.13131037 -0.11033308 -0.008001585 -0.010763064
0.088920504 0.027616678 0.047597487 -0.084169224 0.022417769 -0.088883296 -0.030928096 -0.060539573
0.092958756 -0.06351864 -0.12365492 0.0014199793 -0.023085082 -0.09802335 0.062480524 0.117094316
0.041478317 0.03197206 0.13215002 0.04031585 0.06755554 -0.027460728 -0.09634573 -0.07575806
-0.08811256 0.044279054 0.115547255 0.012048994 0.033462252 0.05257811 0.008876783 0.1253352
0.07552903 0.07825823 0.006929973 0.124551184 -0.06551366 -0.06856658 -0.052908227 -0.104094386
-0.07806836 0.011603701 -0.0032522653 0.0019948448 -0.014520788 0.087399095 -0.102764644 0.0571819
-0.11147099 0.13131459 -0.014901607 0.11785516 0.03834746 0.050633606 0.094804324 -0.070618145
0.09511438 0.057109702 -0.045747306 0.053952843 -0.11281792 0.06985385 0.0995178 -0.025858317
0.010643883 -0.072144054 0.10794967 0.06835076 0.06312613 0.027513703 -0.10612223 0.0585903
0.047069658 0.08822277 -0.109339945 0.0071551567 -0.107071035 -0.10127302 -0.007176571 -0.13170463
0.06314196 -0.076637514 0.020818857 0.097775124 0.07838357 -0.025629139 -0.061717242 0.008860015
0.033755817 0.11300336 -0.091617376 -0.14577103 0.105963536 0.065045916 0.014347886 -0.015274679
-0.0037753088 0.07661526 -0.030619748 0.062253874 -0.1212544 0.0026354901 -0.04917036 0.09386323
-0.12357593 -0.13062473 0.024871804 0.040918954 0.11059791 0.06384081 0.11369577 -0.08672355
0.0869546 -0.018186558 0.07720828 -0.13372289 -0.121378995 0.11043353 -0.05164956 0.06988841
0.07067809 -0.10198315 -0.08139045 -0.04679283 -0.012810041 -0.017470555 -0.08488117 -0.01459789
-0.13580362 -0.024774512 -0.07990628 -0.05312348 0.07759338 0.098281875 0.02376909 0.015016302
-0.1047311 0.08158806 -0.11599838 -0.012141321 0.120812446 -0.11494528 -0.034622215 -0.08883374
-0.123565674 0.062429417 0.032977127 0.09862847 -0.008303118 -0.12675475 -0.0066625765 -0.04360618
-0.007874988 -0.037469946 0.015658256 -0.15954271 -0.11154182 0.11229256 -0.07748336 -0.00566958
0.088736795 0.0648601 -0.08593706 -0.104123406 -0.044553336 -0.079861104 -0.029771272 -0.22140294
0.018429166 0.06106441 -0.02679219 0.22789343 -0.09770738 0.0053721624 0.065537386 0.007870509
0.019617869 0.043965712 0.09646969 0.088700786 0.08682843 -0.0018111622 0.081204124 -0.048466805
-0.010979867 0.09158028 0.11464519 0.037326403 -0.070040606 -0.031375688 -0.076307036 -0.0021023105

fc2.bias f4 [32]
00000000: 8b0e 04be 73e8 9bbc 2f03 06be f0a2 9c3d
00000010: fec9 563d cf4b 6f3d 0776 63bd 0a9e f7bd
00000020: 522e ba3d 90cf d4bd 7358 73bd b6df eb3c
00000030: 1882 d0bd 5e23 c73d 58f0 d33b 09b3 5fbd
00000040: 23b0 86bd a7a1 f53d d73e cc3d 80ab c33d
00000050: 32a9 b93c 1da6 06be 45ff 40bd 98db 85bd
00000060: 0fb3 bd3c 6c08 643c a58a c8bd 640f d33d
00000070: b9da 253b bed1 bbbd 0c5a 69bc ff8c a63d
-0.12896173 -0.019031739 -0.13087152 0.07648265 0.05243873 0.058421906 -0.05553248 -0.120906904
0.09090866 -0.10391152 -0.059410524 0.028793197 -0.101810634 0.09723543 0.00646786 -0.0546141
-0.06576564 0.11993723 0.09972923 0.095541954 0.022663686 -0.13149305 -0.047118444 -0.06536025
0.02315667 0.013918024 -0.09792069 0.1030567 0.002530737 -0.091708645 -0.01424266 0.081323616

fc3.weight f4 [3, 32]
00000000: acb6 ab3d 4767 9bbd d59e 393d e45a 143c
00000010: 20bf fb3d 5dc1 053e d0b9 1d3e ac0c 8dbd
00000020: 3e77 c43d ef77 fc3c f2ba 2bbc 225a aa3d
00000030: 3164 3dbd 8c0c 91bd fb85 76bc e353 29bd
00000040: 4974 06be eef3 1dbe 6826 f9bc 31ff 533c
00000050: 0b04 0e3e 2608 ee3d 9906 30bb 89f4 073e
00000060: 66f5 66bd f692 1dbe 9221 193d 0ce5 f9bd
00000070: 1954 7b3d fd43 973d 1140 263d ca8e cb3d
00000080: ce61 04be 22bb 1fbe 9d06 c6bd 1181 88bb
00000090: 602b 3a3d 9c84 2a3e d7ac 233c 3c79 193d
000000a0: e999 193e e48d 0fbd 56f9 21be df12 823d
000000b0: daba 18be 8cd7 19bb 7228 49bc e07e 7a3d
000000c0: f6e4 dcbc d6e4 ddbd 4eae b23d 8bf1 f93d
000000d0: 2779 3f3d 3ca1 a33d 08f5 36bd 4756 c4bd
000000e0: 6b74 d8bd 1ab8 f93d aca1 05be 4d52 a93d
000000f0: b62b e9bd f1a6 16bd 6fb0 b83d d474 ce3d
00000100: 8e08 efbd fe34 17be 5233 523c 947f c83d
00000110: 9700 8c3d 72e2 49bd c224 97bd 9211 e7bd
00000120: 0ba9 b73d df8e d13c 9d92 0a3e 0917 8c3d
00000130: 9d7a 023c 9ea6 3a3d a101 0abe b084 0d3e
00000140: e984 6fbc b7cd 86bd a74d a4bd 0099 fc3d
00000150: 506d e73c afaa 3d3e 9753 24be 65f0 0c3e
00000160: e7d0 bbbd f258 af3c bb2e 3c3c ca70 e4b9
00000170: 3c4c a73d 16d3 12be 02ad 7e3d 2928 60bc
0.08384451 -0.07588058 0.04531749 0.009054873 0.122923136 0.13062043 0.15402913 -0.068871826
0.09593056 0.030818908 -0.010481583 0.08317973 -0.046238128 -0.07082471 -0.015046592 -0.041339766
-0.13130297 -0.15425083 -0.030413821 0.01293926 0.1386873 0.11622648 -0.0026859401 0.13276877
-0.056386374 -0.15388092 0.03738553 -0.1220189 0.0613595 0.073860146 0.040588442 0.09939344
-0.12927935 -0.15598729 -0.0966923 -0.0041657765 0.045451522 0.16652149 0.009989939 0.037469134
0.15000118 -0.035047427 -0.1581777 0.063512556 -0.14915028 -0.0023474423 -0.012277709 0.061156154
-0.026964646 -0.108346626 0.08724652 0.12204274 0.0467464 0.079897374 -0.044667274 -0.095867686
-0.1056908 0.12193318 -0.13049954 0.08267651 -0.1138529 -0.0367803 0.09018027 0.10080877
-0.116715536 -0.14766309 0.0128296185 0.097899586 0.0683605 -0.04928822 -0.07380058 -0.11282648
0.08967789 0.025580822 0.13532491 0.06840331 0.007963804 0.045569055 -0.13477184 0.13820148
-0.014619091 -0.06582206 -0.080226235 0.1233387 0.028250366 0.18522142 -0.16047512 0.13763578
-0.09170704 0.021404717 0.011485751 -0.00043571583 0.081688374 -0.14338335 0.06217671 -0.01368145

fc3.bias f4 [3]
00000000: 542b 103d 07ba 89bd 8119 f1bd
0.03519757 -0.06724935 -0.117724426
